CrystalGraphConvNet(
  (embedding): Linear(in_features=92, out_features=64, bias=True)
  (convs): ModuleList(
    (0): ConvLayer(
      (fc_full): Linear(in_features=169, out_features=128, bias=True)
      (sigmoid): Sigmoid()
      (softplus1): Softplus(beta=1, threshold=20)
      (bn1): BatchNorm1d(128, eps=1e-05, momentum=0.1, affine=True, track_running_stats=True)
      (bn2): BatchNorm1d(64, eps=1e-05, momentum=0.1, affine=True, track_running_stats=True)
      (softplus2): Softplus(beta=1, threshold=20)
    )
    (1): ConvLayer(
      (fc_full): Linear(in_features=169, out_features=128, bias=True)
      (sigmoid): Sigmoid()
      (softplus1): Softplus(beta=1, threshold=20)
      (bn1): BatchNorm1d(128, eps=1e-05, momentum=0.1, affine=True, track_running_stats=True)
      (bn2): BatchNorm1d(64, eps=1e-05, momentum=0.1, affine=True, track_running_stats=True)
      (softplus2): Softplus(beta=1, threshold=20)
    )
  )
  (conv_to_fc): Linear(in_features=64, out_features=16, bias=True)
  (conv_to_fc_softplus): Softplus(beta=1, threshold=20)
  (fcs): ModuleList(
    (0): Linear(in_features=16, out_features=16, bias=True)
  )
  (softpluses): ModuleList(
    (0): Softplus(beta=1, threshold=20)
  )
  (fc_out): Linear(in_features=16, out_features=1, bias=True)
  (dropout): Dropout(p=0.25, inplace=False)
)
Epoch: [0][0/9]	Time 9.815 (9.815)	Data 7.783 (7.783)	Loss 1.8889 (1.8889)	MAE 0.565 (0.565)
Test: [0/2]	Time 5.350 (5.350)	Loss 0.9282 (0.9282)	MAE 0.423 (0.423)
 * MAE 0.422
Epoch: [1][0/9]	Time 0.112 (0.112)	Data 0.018 (0.018)	Loss 1.2183 (1.2183)	MAE 0.473 (0.473)
Test: [0/2]	Time 0.026 (0.026)	Loss 0.9111 (0.9111)	MAE 0.408 (0.408)
…
